…
/users/PAS1383/osu10171/.conda/envs/local/lib/python2.7/site-packages/h5py/__init__.py:34: FutureWarning: Conversion of the second argument of issubdtype from `float` to `np.floating` is deprecated. In future, it will be treated as `np.float64 == np.dtype(float).type`.
  from ._conv import register_converters as _register_converters
You have chosen: Namespace(flip=0, h=0, iters=10)
 
Running iter 1
 
_________________________________________________________________
Layer (type)                 Output Shape              Param #   
=================================================================
input_1 (InputLayer)         (None, 75, 75, 3)         0         
_________________________________________________________________
conv2d_1 (Conv2D)            (None, 73, 73, 32)        896       
_________________________________________________________________
max_pooling2d_1 (MaxPooling2 (None, 36, 36, 32)        0         
_________________________________________________________________
dropout_1 (Dropout)          (None, 36, 36, 32)        0         
_________________________________________________________________
conv2d_2 (Conv2D)            (None, 34, 34, 64)        18496     
_________________________________________________________________
max_pooling2d_2 (MaxPooling2 (None, 17, 17, 64)        0         
_________________________________________________________________
dropout_2 (Dropout)          (None, 17, 17, 64)        0         
_________________________________________________________________
conv2d_3 (Conv2D)            (None, 15, 15, 128)       73856     
_________________________________________________________________
max_pooling2d_3 (MaxPooling2 (None, 7, 7, 128)         0         
_________________________________________________________________
dropout_3 (Dropout)          (None, 7, 7, 128)         0         
_________________________________________________________________
conv2d_4 (Conv2D)            (None, 5, 5, 128)         147584    
_________________________________________________________________
max_pooling2d_4 (MaxPooling2 (None, 5, 5, 128)         0         
_________________________________________________________________
dropout_4 (Dropout)          (None, 5, 5, 128)         0         
_________________________________________________________________
conv2d_5 (Conv2D)            (None, 3, 3, 128)         147584    
_________________________________________________________________
max_pooling2d_5 (MaxPooling2 (None, 3, 3, 128)         0         
_________________________________________________________________
dropout_5 (Dropout)          (None, 3, 3, 128)         0         
_________________________________________________________________
flatten_1 (Flatten)          (None, 1152)              0         
_________________________________________________________________
batch_normalization_1 (Batch (None, 1152)              4608      
_________________________________________________________________
dense_1 (Dense)              (None, 256)               295168    
_________________________________________________________________
dropout_6 (Dropout)          (None, 256)               0         
_________________________________________________________________
dense_2 (Dense)              (None, 128)               32896     
_________________________________________________________________
dropout_7 (Dropout)          (None, 128)               0         
_________________________________________________________________
dense_3 (Dense)              (None, 128)               16512     
_________________________________________________________________
dropout_8 (Dropout)          (None, 128)               0         
_________________________________________________________________
dense_4 (Dense)              (None, 64)                8256      
_________________________________________________________________
dropout_9 (Dropout)          (None, 64)                0         
_________________________________________________________________
dense_5 (Dense)              (None, 1)                 65        
=================================================================
Total params: 745,921
Trainable params: 743,617
Non-trainable params: 2,304
_________________________________________________________________
2018-08-02 14:33:59.568152: W tensorflow/core/platform/cpu_feature_guard.cc:45] The TensorFlow library wasn't compiled to use SSE4.1 instructions, but these are available on your machine and could speed up CPU computations.
…
